…
2024-06-23 22:40:18,289 - out : 128, hidden: 128
INFO:graphgps.utility.utils:out : 128, hidden: 128
2024-06-23 22:40:18,289 - bs : 256, lr: 0.001
2024-06-23 22:40:18,289 - bs : 256, lr: 0.001
INFO:graphgps.utility.utils:bs : 256, lr: 0.001
2024-06-23 22:40:18,289 - The model GAT is initialized.
2024-06-23 22:40:18,289 - The model GAT is initialized.
INFO:graphgps.utility.utils:The model GAT is initialized.
2024-06-23 22:40:18,336 - GAE_forall(
  (encoder): GAT_Variant(
    (convs): ModuleList(
      (0): GATConv(1433, 32, heads=4)
      (1-2): 2 x GATConv(128, 32, heads=4)
    )
  )
  (decoder): mlp_score(
    (lins): ModuleList(
      (0): Linear(in_features=128, out_features=32, bias=True)
      (1): Linear(in_features=32, out_features=32, bias=True)
      (2): Linear(in_features=32, out_features=1, bias=True)
    )
    (product): DotProduct()
  )
) on cuda:0
2024-06-23 22:40:18,336 - GAE_forall(
  (encoder): GAT_Variant(
    (convs): ModuleList(
      (0): GATConv(1433, 32, heads=4)
      (1-2): 2 x GATConv(128, 32, heads=4)
    )
  )
  (decoder): mlp_score(
    (lins): ModuleList(
      (0): Linear(in_features=128, out_features=32, bias=True)
      (1): Linear(in_features=32, out_features=32, bias=True)
      (2): Linear(in_features=32, out_features=1, bias=True)
    )
    (product): DotProduct()
  )
) on cuda:0
INFO:graphgps.utility.utils:GAE_forall(
  (encoder): GAT_Variant(
    (convs): ModuleList(
      (0): GATConv(1433, 32, heads=4)
      (1-2): 2 x GATConv(128, 32, heads=4)
    )
  )
  (decoder): mlp_score(
    (lins): ModuleList(
      (0): Linear(in_features=128, out_features=32, bias=True)
      (1): Linear(in_features=32, out_features=32, bias=True)
      (2): Linear(in_features=32, out_features=1, bias=True)
    )
    (product): DotProduct()
  )
) on cuda:0
2024-06-23 22:40:18,343 - Num parameters: 222561
2024-06-23 22:40:18,343 - Num parameters: 222561
INFO:graphgps.utility.utils:Num parameters: 222561
2024-06-23 22:40:18,369 - config saved into results/ns_gnn_models-Tune/cora_run2aou17t0_GAT
2024-06-23 22:40:18,369 - config saved into results/ns_gnn_models-Tune/cora_run2aou17t0_GAT
…
2024-06-24 01:39:45,645 - bs : 256, lr: 0.001
2024-06-24 01:39:45,645 - bs : 256, lr: 0.001
INFO:graphgps.utility.utils:bs : 256, lr: 0.001
2024-06-24 01:39:45,645 - The model GAT is initialized.
2024-06-24 01:39:45,645 - The model GAT is initialized.
2024-06-24 01:39:45,645 - The model GAT is initialized.
INFO:graphgps.utility.utils:The model GAT is initialized.
2024-06-24 01:39:45,697 - GAE_forall(
  (encoder): GAT_Variant(
    (convs): ModuleList(
      (0): GATConv(1433, 32, heads=4)
      (1-2): 2 x GATConv(128, 32, heads=4)
    )
  )
  (decoder): mlp_score(
    (lins): ModuleList(
      (0): Linear(in_features=128, out_features=32, bias=True)
      (1): Linear(in_features=32, out_features=32, bias=True)
      (2): Linear(in_features=32, out_features=1, bias=True)
    )
    (product): DotProduct()
  )
) on cuda:0
2024-06-24 01:39:45,697 - GAE_forall(
  (encoder): GAT_Variant(
    (convs): ModuleList(
      (0): GATConv(1433, 32, heads=4)
      (1-2): 2 x GATConv(128, 32, heads=4)
    )
  )
  (decoder): mlp_score(
    (lins): ModuleList(
      (0): Linear(in_features=128, out_features=32, bias=True)
      (1): Linear(in_features=32, out_features=32, bias=True)
      (2): Linear(in_features=32, out_features=1, bias=True)
    )
    (product): DotProduct()
  )
) on cuda:0
2024-06-24 01:39:45,697 - GAE_forall(
  (encoder): GAT_Variant(
    (convs): ModuleList(
      (0): GATConv(1433, 32, heads=4)
      (1-2): 2 x GATConv(128, 32, heads=4)
    )
  )
  (decoder): mlp_score(
    (lins): ModuleList(
      (0): Linear(in_features=128, out_features=32, bias=True)
      (1): Linear(in_features=32, out_features=32, bias=True)
      (2): Linear(in_features=32, out_features=1, bias=True)
    )
    (product): DotProduct()
  )
) on cuda:0
INFO:graphgps.utility.utils:GAE_forall(
  (encoder): GAT_Variant(
    (convs): ModuleList(
      (0): GATConv(1433, 32, heads=4)
      (1-2): 2 x GATConv(128, 32, heads=4)
    )
  )
  (decoder): mlp_score(
    (lins): ModuleList(
      (0): Linear(in_features=128, out_features=32, bias=True)
      (1): Linear(in_features=32, out_features=32, bias=True)
      (2): Linear(in_features=32, out_features=1, bias=True)
    )
    (product): DotProduct()
  )
) on cuda:0
2024-06-24 01:39:45,700 - Num parameters: 222561
2024-06-24 01:39:45,700 - Num parameters: 222561
2024-06-24 01:39:45,700 - Num parameters: 222561
INFO:graphgps.utility.utils:Num parameters: 222561
2024-06-24 01:39:45,726 - config saved into results/ns_gnn_models-Tune/cora_run79sz6l3p_GAT
2024-06-24 01:39:45,726 - config saved into results/ns_gnn_models-Tune/cora_run79sz6l3p_GAT
…
